xgraph/checkpoint/mutag/gcn_best.pth (torch, 140663 bytes, 8 tensors)

model.gnn_layers.0.weight f4 [7, 128]
0	0xbf5b7509	-0.85725456
1	0xbf051129	-0.5197931
2	0xbfcc2746	-1.5949485
3	0xbb9b6a75	-0.0047429153
4	0xbe6c49d7	-0.23075043
5	0x3da3b12b	0.079927765
6	0xbe4183aa	-0.18897882
7	0xbe72498d	-0.2366087
8	0xbe8da135	-0.27662054
9	0xbe543ecd	-0.20727082
10	0x3e6bbe75	0.23021872
11	0xbe1ce4e2	-0.15321687
12	0x3ed574a7	0.4169056
13	0x3d6b87d4	0.057502583
14	0xbdeec03e	-0.11657761
15	0x3e603742	0.21896079
16	0xbdf56117	-0.11981409
17	0x3df5c794	0.12000957
18	0xbda820ba	-0.08209367
19	0xbe2d3e7c	-0.16918367
20	0xbc0d1a4d	-0.008612228
21	0xbe054012	-0.13012722
22	0xbf107160	-0.56422997
23	0xbd35309e	-0.044235818
24	0x3f177854	0.5916798
25	0xbeec89bb	-0.4619883
26	0xbd32ed7c	-0.043683514
27	0xbe3d888b	-0.18509118
28	0xbe9318c5	-0.28729835
29	0xbe59d707	-0.21273433
30	0xbe4a9c68	-0.19786227
31	0xbd9a0fb4	-0.075225264
32	0x3d918b9e	0.07106708
33	0xbec4d185	-0.384411
34	0xbe8dab19	-0.276696
35	0x3d031baa	0.032008804
36	0x3ed7da4c	0.42158735
37	0x3d4766a2	0.048681863
38	0x3f0ecc4d	0.5578049
39	0xbe36a493	-0.17836218
40	0xbe9668b2	-0.2937675
41	0xbf61abe1	-0.8815289
42	0x3d891850	0.0669409
43	0xbddcdca4	-0.10784271
44	0xbfb1fc71	-1.3905164
45	0xbbbaa505	-0.0056959414
46	0x3d616774	0.0550303
47	0xbecfb4e0	-0.40567684
48	0x3f044016	0.5166029
49	0x3e23e1a8	0.1600405
50	0x3e0f90a9	0.14020027
51	0x3f158674	0.58408284
52	0x3e8dd893	0.27704296
53	0x3be8f0a0	0.007108763
54	0x3ebad6ae	0.36491913
55	0xbdcb9869	-0.09941179
56	0xbe2fa510	-0.1715281
57	0xbdfa95d8	-0.12235612
58	0xbeab0fbd	-0.33410445
59	0xbdd06af4	-0.1017665
60	0xbe6b4100	-0.22974014
61	0x3e37b47e	0.17939946
62	0x3d82bbf0	0.063835025
63	0xbe1f9e59	-0.15587749
64	0xbf3ee7be	-0.7457236
65	0x3d8dba9b	0.06920358
66	0xbd2572db	-0.040392738
67	0xbeb02b99	-0.34408262
68	0xbee9032c	-0.45510232
69	0xbe3fcfbd	-0.1873159
70	0xbebd4a63	-0.36970815
71	0xbfcb7190	-1.5894032
72	0xbe8177c0	-0.25286674
73	0x3daa27c3	0.08308365
74	0x3efd7f78	0.49511313
75	0xbe901f33	-0.28148803
76	0xbede1eec	-0.43382967
77	0xbee46f77	-0.4461629
78	0x3d84a6a0	0.06477094
79	0xbe8f5250	-0.27992487
80	0xbe0d19ea	-0.13779417
81	0xbee79eeb	-0.45238432
82	0xbeb500d1	-0.35352185
83	0xbdfbd6e6	-0.12296848
84	0xbf81ff73	-1.0156082
85	0x3f2b52e0	0.6692333
86	0x3f3a350d	0.727372
87	0xbe61c56e	-0.2204797
88	0xbe15efad	-0.1464221
89	0x3d71c4a2	0.059025414
90	0xbe855ea1	-0.2604876
91	0xbcc762dd	-0.024339134
92	0xbe975cc6	-0.29562968
93	0xbe5d706b	-0.21624915
94	0x3e174e59	0.14775981
95	0xbf8d42f4	-1.1036057
96	0x3e1c6429	0.15272583
97	0x3d0dbaa7	0.034601834
98	0xbe5bbb16	-0.21458086
99	0xbeb7cb89	-0.35897473
100	0x3e15d69d	0.1463265
101	0x3eecc1cf	0.46241614
102	0xbeac1aed	-0.33614293
103	0xbd6bf045	-0.057602186
104	0x3ec4c121	0.38428596
105	0x3eb9cf82	0.36291128
106	0x3d552512	0.052037306
107	0xbdf9a0bc	-0.12188861
108	0xbea3a3af	-0.31960818
109	0xbe551340	-0.20808125
110	0xbea7c63f	-0.32768437
111	0xbe610e31	-0.2197807
112	0xbd2900a4	-0.041260377
113	0xbe21da82	-0.1580601
114	0x3e980c8c	0.29697073
115	0x3efd7d7a	0.49509794
116	0xbd5f1b12	-0.054469176
117	0xbdcc50a2	-0.09976317
118	0x3ef201fa	0.47267133
119	0xbd8ed0d4	-0.069734246
120	0xbf9e47be	-1.2365644
121	0xbd676f07	-0.05650237
122	0x3ec40c0f	0.3829045
123	0xbf59a51d	-0.8501757
124	0xbe69f3bb	-0.22846882
125	0x3bac967a	0.0052669616
126	0xbeeff9d9	-0.46870306
127	0xbfba8f2f	-1.4574946
128	0x3ef2cdd8	0.4742267
129	0xbea337ef	-0.3187861
130	0x3f246288	0.64212847
131	0xbe1b52dc	-0.15168327
132	0xbb8dab54	-0.0043234024
133	0xbe95b022	-0.2923594
134	0xbd386c5c	-0.045025215
135	0x3f88bf0b	1.0683302
136	0x3d48efad	0.049056698
137	0xbeaeb6d4	-0.34123862
138	0xbf579bd2	-0.8422214
139	0x3f8c2413	1.0948509
140	0xbdbf05f0	-0.09327304
141	0x3cffd516	0.031229537
142	0xbd81c295	-0.06335942
143	0x3e244009	0.16040052
144	0x3d315c2a	0.043300785
145	0xbef5f9fb	-0.48042282
146	0xbcf4bf6f	-0.029876439
147	0x3e1865d2	0.14882591
148	0x3c7129db	0.014719452
149	0xbdff3a42	-0.12462284
150	0x3e4eb3ed	0.20185824
151	0x3efdef7a	0.4959677
152	0xbfc124ff	-1.5089415
153	0x3ea0179d	0.31268016
154	0xc02cdee4	-2.7011042
155	0x3f8f0f39	1.117652
156	0xbdeaa21b	-0.114567004
157	0xbced1f1d	-0.0289455
158	0x3e01412a	0.12622514
159	0x3d565976	0.05233141
160	0xbb140f3e	-0.0022592093
161	0x3f64c0b1	0.89356524
162	0x3e466165	0.1937309
163	0xbe612734	-0.21987611
164	0xbda136f2	-0.07871808
165	0xbf9d640a	-1.2296154
166	0xbf59a340	-0.85014725
167	0xbe0bc4d1	-0.13649298
168	0x3f5b4cda	0.8566414
169	0x3f0c1cdb	0.5473153
170	0x3dec083a	0.115250066
171	0xbe492627	-0.1964346
172	0x3f2d2650	0.67636585
173	0x3db6805b	0.089112006
174	0xbdb9ce55	-0.09072558
175	0x3f9df959	1.234172
176	0xbfaa00da	-1.328151
177	0xbea6027e	-0.32423776
178	0xbf205b70	-0.6263952
179	0xbfac749b	-1.3473085
180	0xbf26da3d	-0.65176755
181	0xbec23e12	-0.3793798
182	0x3d24823c	0.040163264
183	0xbee4a988	-0.44660592
184	0xbe882a79	-0.26594904
185	0xbd38780c	-0.04503636
186	0x3f5d26ce	0.86387336
187	0xbdfc9b57	-0.12334316
188	0x3e0b866f	0.13625501
189	0xbf0d241f	-0.5513324
190	0xbdfb7581	-0.122782715
191	0xbe1279a6	-0.14304218
192	0x3e367263	0.17817073
193	0xbe604be8	-0.21903956
194	0xbe1e3d3f	-0.15453051
195	0x3f64b2b9	0.8933521
196	0x3e1eef39	0.15520944
197	0xbf80ec7e	-1.0072172
198	0x3de87ed8	0.113523185
199	0x3f085e27	0.53268665
200	0xbd4c09c4	-0.049814
201	0xbe69fba5	-0.22849901
202	0xbf9ab8bc	-1.2087626
203	0x3e4c7084	0.19964796
204	0x3f9bebd6	1.2181346
205	0x3e745799	0.23861541
206	0xbd0d556b	-0.03450529
207	0x3f03181d	0.5120867
208	0xbe262260	-0.1622405
209	0x3e9b24a1	0.30301383
210	0x3fba3bde	1.454952
211	0xbe35a154	-0.17737323
212	0x3e324f45	0.17413051
213	0xbd2d5e2e	-0.042326145
214	0xbf731756	-0.9495748
215	0xbe5dc4fd	-0.21657176
216	0xbe1febe1	-0.15617324
217	0xbc06da93	-0.008230823
218	0xbe5f5a31	-0.21811749
219	0x3a7b14df	0.0009578
220	0xbe922c35	-0.28549352
221	0xbe6a3ba9	-0.22874321
222	0xbe28d7bb	-0.16488545
223	0x3e584903	0.21121602
224	0xbfcbe5be	-1.5929487
225	0x3da91fc4	0.08258012
226	0x3e4f2774	0.20229894
227	0x3f7b251e	0.9810351
228	0xbe1d7b96	-0.15379176
229	0xbfb57be3	-1.4178432
230	0xbd949636	-0.07255213
231	0xbe496404	-0.19667059
232	0x3c1a39c9	0.009413191
233	0x3e3cd1ad	0.1843936
234	0xbc086c73	-0.008326638
235	0xbe683217	-0.22675358
236	0x3fcc89d4	1.5979562
237	0xbd27e828	-0.040992886
238	0x3e2ad944	0.16684443
239	0xbf44bde8	-0.76852274
240	0xbfda8e1a	-1.7074616
241	0xbdd3da49	-0.10344369
242	0xbf2865d1	-0.6578036
243	0xbf92925f	-1.1450919
244	0xbe20da15	-0.15708192
245	0xbf130b31	-0.5743895
246	0xbe05bc83	-0.13060193
247	0x3d226fd6	0.039657436
248	0x3d14e244	0.036348596
249	0xbe6c137c	-0.23054308
250	0xbde136dd	-0.109967925
251	0xbc8c46b6	-0.017123561
252	0x3f98444a	1.189584
253	0x3dbbd975	0.09172336
254	0xbe070ebd	-0.13189216
255	0x3ed473d9	0.41494635

model.gnn_layers.0.bias f4 [128]
0	0x3e48d3d4	0.19612056
1	0xbe7794e3	-0.2417789
2	0xbd3494e8	-0.04408732
3	0xbd3c6cb6	-0.046002112
4	0xbd604a03	-0.054758083
5	0xbdd4a0d4	-0.10382238
6	0x00000000	0.0
7	0xbcb04a14	-0.021519698
8	0xbe4ec2a9	-0.20191444
9	0x3cd579bf	0.02605903
10	0xbe9d2f44	-0.30700123
11	0x3aeab495	0.0017906601
12	0xbd5b8355	-0.053592045
13	0xbdfe3f6d	-0.12414441
14	0xbcc0ac33	-0.023519611
15	0xbea97cfa	-0.33103162
16	0xbd5d13b3	-0.053973865
17	0xbe19b141	-0.15009023
18	0xbcbfd2d2	-0.023415957
19	0xbe80034e	-0.2500252
20	0xbd636332	-0.055514522
21	0x3d622be9	0.055217657
22	0xbe0c483b	-0.13699429
23	0xbe7db5fe	-0.24776456
24	0xbe1e6a75	-0.15470298
25	0xbeb35590	-0.35026217
26	0xbda8177e	-0.08207606
27	0x3cb4a6db	0.02205222
28	0xbd89f1e7	-0.06735592
29	0xbd93cfaa	-0.07217343
30	0xbeaaaf94	-0.3333708
31	0xbd96177f	-0.073287
32	0xbddf86ed	-0.10914407
33	0xbe5334fc	-0.2062568
34	0xbe3f3963	-0.18674235
35	0xbd7e465f	-0.06207883
36	0xbe2002d7	-0.15626083
37	0xbe2448cc	-0.16043395
38	0xbede83e8	-0.4346001
39	0x00000000	0.0
40	0xbe8fcac5	-0.28084388
41	0x3e2c4ebb	0.16826908
42	0xbea004b0	-0.31253576
43	0xbe7c4294	-0.24634773
44	0xbd5a39e7	-0.053277876
45	0xbdc524d8	-0.09626168
46	0xbdacd67a	-0.08439346
47	0xbe2cbae7	-0.16868173
48	0xbe5f9e67	-0.2183777
49	0xbe4ce616	-0.20009646
50	0xbe30b7f8	-0.17257679
51	0xbe4f7379	-0.20258893
52	0xbea9586f	-0.33075282
53	0xbd1d9018	-0.038467497
54	0xbe816533	-0.2527252
55	0xbc258d70	-0.010104522
56	0x3d8c41e1	0.06848503
57	0xbcbad871	-0.022808285
58	0xbe969734	-0.29412234
59	0xbd8f24ae	-0.06989418
60	0xbe93db11	-0.28878072
61	0xbe727ec1	-0.23681165
62	0xbe052ab3	-0.1300457
63	0x00000000	0.0
64	0xbe625470	-0.22102523
65	0xbdc31bae	-0.09526764
66	0xbc314588	-0.0108198
67	0xbe974777	-0.2954671
68	0xbe733375	-0.23750098
69	0xbe9a11c4	-0.3009168
70	0xbe13079b	-0.1435837
71	0xbe094e2a	-0.13408723
72	0xbd3f0ee1	-0.04664505
73	0xbe462d9e	-0.19353339
74	0xbe662ceb	-0.22478072
75	0xbea30990	-0.31843233
76	0xbe19fc64	-0.15037686
77	0xbe8e3475	-0.27774397
78	0xbdafc61c	-0.08582708
79	0xbe2724c1	-0.16322614
80	0xbd6f3b97	-0.05840644
81	0xbe8a06d9	-0.2695835
82	0x3e47849d	0.19484182
83	0xbdfd7d5c	-0.12377426
84	0xbe4994df	-0.19685696
85	0xbf22f8e5	-0.6366103
86	0xbe3faa74	-0.18717366
87	0xbcc9755a	-0.02459209
88	0xbcf5fc0f	-0.030027417
89	0xbd9ff0aa	-0.07809575
90	0xbe8ed65a	-0.27897912
91	0xbdc0b3d8	-0.094093025
92	0xbdf957f0	-0.12174976
93	0xbd93ce7d	-0.07217119
94	0xbe52c57c	-0.20583147
95	0xbe3ebb8c	-0.18626231
96	0xbe88eb4d	-0.2674202
97	0xbdac796f	-0.08421599
98	0xbe237e2a	-0.15966097
99	0xbeac3780	-0.33636093
100	0xbe3a5540	-0.18196583
101	0xbe1f0c95	-0.15532143
102	0xbe92aa5f	-0.28645608
103	0x00000000	0.0
104	0xbe0887df	-0.1333308
105	0xbedeefd8	-0.4354236
106	0xbd9e0738	-0.077162206
107	0xbd0d14cc	-0.03444366
108	0x3e6127f3	0.21987896
109	0x00000000	0.0
110	0xbe9c4869	-0.30523995
111	0x3dbb48e2	0.09144761
112	0xbcd868c9	-0.026417153
113	0xbe1391b2	-0.14411047
114	0xbecd0dde	-0.40049642
115	0xbe8f81ed	-0.28028813
116	0xbda14059	-0.078736015
117	0xbc3c4cad	-0.01149289
118	0xbd415963	-0.047204386
119	0xbebde2f3	-0.3708721
120	0x3e968071	0.29394868
121	0xbd856063	-0.06512525
122	0xbee90ab6	-0.45515984
123	0x3d91e631	0.07123984
124	0x3de36005	0.11102299
125	0xbdae407a	-0.08508392
126	0xbe00b67c	-0.12569612
127	0xbd33839d	-0.043826688

model.gnn_layers.1.weight f4 [128, 128]
0	0xbcb611a2	-0.022225205
1	0x3f730298	0.9492583
2	0xbe11db4f	-0.14243816
3	0xbe260f61	-0.16216804
4	0xbf512457	-0.81696075
5	0x3f825b02	1.0184023
6	0xbcddff1d	-0.027099187
7	0xbe60af63	-0.21941905
8	0xbd021f50	-0.031768143
9	0xbf6dc9fb	-0.9288632
10	0xbe671a99	-0.2256874
11	0x3da1e117	0.079042606
12	0x3f659539	0.8968082
13	0x3dc40bc7	0.09572559
14	0xbf9d3adc	-1.2283587
15	0xbdbd7da3	-0.09252479
16	0xbe76b1b9	-0.24091233
17	0x3e1a18b9	0.15048493
18	0xbd2f9541	-0.04286695
19	0x3f0e6275	0.55618984
20	0xbe7f06f6	-0.24904999
21	0x3d86e627	0.06586867
22	0x3d525083	0.051346313
23	0x3f82ea2b	1.0227712
24	0x3d22a998	0.03971252
25	0xbe841982	-0.2580071
26	0xbe0afb80	-0.13572502
27	0xbd48910c	-0.048966452
28	0x3f910b50	1.1331577
29	0xbe1ae162	-0.15125039
30	0x3bb84173	0.0056230365
31	0xbe8200a5	-0.25391117
32	0x3fa2b0ff	1.2710265
33	0xbe19322e	-0.14960548
34	0x3d717aa8	0.058954865
35	0xbf8cd99e	-1.1003911
36	0xbe020362	-0.12696603
37	0xbe267528	-0.16255629
38	0xbd73b6a1	-0.05950034
39	0xbe08fe5e	-0.13378283
40	0x3fa13c92	1.259661
41	0xbefe845d	-0.4971036
42	0xbe68cbf5	-0.22734053
43	0xbdefd4be	-0.11710499
44	0xc05539c0	-3.3316498
45	0x3eda13c3	0.42593202
46	0x3d2ddf15	0.042449076
47	0xbe179d54	-0.1480611
48	0xbe809d36	-0.25119942
49	0xbd3d6f58	-0.046248764
50	0x3c070418	0.008240722
51	0xbcd52fda	-0.026023794
52	0x3d858ec9	0.06521375
53	0xbdbeaaab	-0.09309896
54	0xbf09dc50	-0.53851795
55	0xbcc1c6fa	-0.02365445
56	0x3d79f966	0.06102886
57	0xbef0c106	-0.47022265
58	0x3c9ee272	0.019395087
59	0xbedb7af0	-0.4286723
60	0x3e357677	0.17720972
61	0xbda39016	-0.079864666
62	0x3ebffac7	0.37496015
63	0x3e5dca67	0.21659242
64	0x3e08dab4	0.13364679
65	0xbdeb6da5	-0.114955224
66	0xbf04aed5	-0.5182927
67	0xbde17319	-0.11008281
68	0xbf6d9d8f	-0.9281854
69	0x3e5a8d8c	0.21343058
70	0x3c191493	0.009343284
71	0x3e8ee24e	0.27907032
72	0xbe09634b	-0.13416784
73	0xbd6dbdab	-0.05804221
74	0x3d62a850	0.055336297
75	0x3f193b90	0.5985651
76	0x3d0a479f	0.03375971
77	0x3c98ca45	0.018651137
78	0x3e14a145	0.14514644
79	0xbd9db473	-0.077004336
80	0x3cdb8d68	0.026800826
81	0xbe570e03	-0.21001439
82	0xbe9a8f49	-0.30187443
83	0xbf90a461	-1.1300164
84	0x3e9ecbd0	0.31014872
85	0x3fab981c	1.3405795
86	0x3ef30c85	0.4747049
87	0x3db67cd5	0.089105286
88	0xbdaf15b1	-0.08549059
89	0xbddbe892	-0.10737719
90	0x3f8dafd2	1.1069281
91	0x3f2e1aef	0.6800985
92	0xbea64342	-0.3247319
93	0x3f56ad86	0.83858526
94	0xbcae792d	-0.021298015
95	0x3d9dcfd3	0.07705655
96	0x3d29ed51	0.04148609
97	0x3f3d44ad	0.73932916
98	0xbca6fcea	-0.02038427
99	0x3d878171	0.06616486
100	0xbf18e4f5	-0.5972436
101	0xbe214da3	-0.15752272
102	0x3c55f912	0.013059871
103	0xbe2f02d4	-0.17090923
104	0xbf3b0c44	-0.7306559
105	0x3ddcefbb	0.107879125
106	0x3ea8e861	0.3298979
107	0x3dae1d95	0.08501736
108	0xbea0d4d9	-0.3141239
109	0xbe299c62	-0.16563562
110	0xbf0ea2c5	-0.55717117
111	0xbe5cf70a	-0.21578613
112	0x3e89e1ec	0.26930177
113	0xbe5d71f4	-0.21625501
114	0xbe235b01	-0.15952684
115	0xbe5da361	-0.21644355
116	0xbd06a9d6	-0.032876812
117	0xbd2f1d0d	-0.042752314
118	0x3daeca84	0.085347205
119	0xbe280580	-0.16408348
120	0xb9d0e9ad	-0.00039846954
121	0x3e081d0e	0.13292333
122	0x3de5148b	0.11185559
123	0x3de12c6e	0.109948024
124	0xbd9b7ccb	-0.07592162
125	0x3f1734dd	0.5906504
126	0x3da565e4	0.08076075
127	0xbc72ca4c	-0.014818739
128	0xbe081882	-0.13290599
129	0x3e7a0845	0.24417217
130	0xbefe4c53	-0.49667606
131	0xbc077ce0	-0.008269519
132	0xbede8b23	-0.43465528
133	0x3fdbaa21	1.7161294
134	0xbe20260f	-0.15639518
135	0xbd41ad5f	-0.04728448
136	0x401665ff	2.3499753
137	0xbf500cb7	-0.812694
138	0x3d8cfedb	0.06884547
139	0x3d8ec6b9	0.06971497
140	0x3f47def8	0.780746
141	0xbda1af4f	-0.078947656
142	0xbdbbb9e9	-0.09166319
143	0xbd1ddbd7	-0.038539734
144	0xbd40a622	-0.047033437
145	0xbd6b7fb3	-0.05749483
146	0xbd0f509d	-0.03498899
147	0x3ee7de75	0.4528691
148	0xbdebfcf4	-0.11522856
149	0xbc865e78	-0.016402468
150	0xbdc3bd04	-0.09557536
151	0x3ec3cdd7	0.3824298
152	0xbd7c7438	-0.061634272
153	0x3d895983	0.06706526
154	0x3a2e5f47	0.00066517707
155	0x3d89e89c	0.0673382
156	0x3f3e375e	0.74303234
157	0x3c34d8ac	0.011037987
158	0xbd78475d	-0.060614932
159	0xbd13e235	-0.0361044
160	0x3fed7f98	1.8554564
161	0x3b7df795	0.0038752307
162	0x3dc317d7	0.095260315
163	0xbe65b3b1	-0.22431828
164	0x3e1d413d	0.15356918
165	0xbd3eb25d	-0.04655682
166	0xbe48c316	-0.1960567
167	0x3dd2fe89	0.10302455
168	0x3f1d23fc	0.6138303
169	0x3ee2824b	0.4424003
170	0xbcfd3b47	-0.030912055
171	0xbe374810	-0.17898583
172	0x3ef9e92d	0.48810712
173	0x3fec7708	1.8473825
174	0x3d550f4f	0.052016553
175	0xbe9b5d8f	-0.30344817
176	0x3dda4a5a	0.10658713
177	0xbbdbb983	-0.0067054643
178	0xbbc8c419	-0.0061268923
179	0xbe06febe	-0.13183114
180	0xbd865158	-0.06558484
181	0xbd0a784b	-0.033806127
182	0x3edc11b6	0.42982262
183	0xbdf5b459	-0.11997289
184	0xbcd1140a	-0.02552225
185	0x3e032364	0.12806469
186	0x3fb9c18e	1.4512193
187	0x3e8c14fc	0.2735976
188	0x3cf28f95	0.02960948
189	0xbe114cc7	-0.14189444
190	0x3f13734c	0.57597804
191	0x3f5d7dbf	0.8652
192	0xbdc172ba	-0.094457105
193	0xbe041fa0	-0.12902689
194	0x3f3557c2	0.7083703
195	0x3e03511c	0.1282391
196	0xbed6ebc7	-0.4197676
197	0xbea70d76	-0.32627457
198	0xbe2697fe	-0.16268918
199	0x3f2152db	0.6301705
200	0xbb4b1582	-0.0030988161
201	0xbdd2b4c3	-0.10288384
202	0x39045263	0.00012619192
203	0x3f02d5e7	0.5110764
204	0x3f7dc475	0.99127895
205	0x3decf612	0.11570372
206	0x4001e8f6	2.0298438
207	0xbd9c1e18	-0.076229274
208	0x3d69a42d	0.057041336
209	0x3dc1cb09	0.09462554
210	0xbe385a79	-0.18003263
211	0x3f8500a2	1.0390818
212	0xbe577f3f	-0.21044634
213	0x3f020070	0.5078192
214	0xbcd97d49	-0.026548998
215	0xbc63a32e	-0.013893886
216	0x3e500247	0.20313369
217	0x3e185c9f	0.14879082
218	0x3e98f2f3	0.29872856
219	0x3e06fbb1	0.1318195
220	0x3f26f8bf	0.65223306
221	0x3f15fe42	0.5859109
222	0x3e1bd82b	0.1521918
223	0xbf1038dc	-0.5633676
224	0xbefd8ec3	-0.4952298
225	0x3ec75aff	0.38936612
226	0x3d95af7c	0.073088616
227	0x3d8da2bb	0.06915804
228	0x3ef20a29	0.47273377
229	0x3d485153	0.04890568
230	0xbe0e244f	-0.13881038
231	0xbdb116c6	-0.08646922
232	0x3e4b7b5a	0.19871274
233	0xbdd0f161	-0.102022894
234	0x3ec2c96f	0.38044307
235	0xbcf8804a	-0.03033461
236	0x3dd1b446	0.102394626
237	0x3cff2257	0.031144304
238	0xbd003239	-0.031297896
239	0xbe7b783b	-0.24557583
240	0x3fb6edbb	1.42913
241	0x3e77777b	0.24166672
242	0xbefe19f7	-0.49629185
243	0xbe9a35ec	-0.30119264
244	0x3daca986	0.084307715
245	0x3f0e16f6	0.55503786
246	0xbe2ac51f	-0.16676758
247	0xbd2e8024	-0.042602673
248	0x3d115db9	0.03548977
249	0xbecf3f0c	-0.40477788
250	0x3d8cdbd6	0.06877868
251	0xbdd3bf9f	-0.10339283
252	0x3d8dd2ad	0.06924949
253	0x3f7cc919	0.9874435
254	0xbd2bc1f0	-0.041933
255	0xbe15442f	-0.14576791

model.gnn_layers.1.bias f4 [128]
0	0xbd285776	-0.041099034
1	0xbf191c1a	-0.59808505
2	0x3e964479	0.29349115
3	0xbdf648ba	-0.1202559
4	0x3e762858	0.24038827
5	0xbf51355f	-0.8172206
6	0xbdaf64d6	-0.08564155
7	0xbe41e36a	-0.18934408
8	0xbec75f65	-0.38939968
9	0x3edecf57	0.43517563
10	0xbe817056	-0.25281018
11	0xbe961db8	-0.2931955
12	0xbdf8fb04	-0.121572524
13	0xbcbdffb0	-0.02319321
14	0x3f174a00	0.5909729
15	0xbe091e2e	-0.13390419
16	0xbd6024a2	-0.054722436
17	0xbdeee58a	-0.11664875
18	0xbcd3f024	-0.025871344
19	0xbf506c92	-0.81415665
20	0xbe61f6ce	-0.22066805
21	0xbd4a396f	-0.04937118
22	0xbe2b80c3	-0.16748337
23	0x3e02da7d	0.12778659
24	0xbe25127e	-0.16120335
25	0xbe911cb9	-0.28342226
26	0xbd658b9b	-0.05604134
27	0xbd1fb60b	-0.03899197
28	0xbca0fdc7	-0.01965226
29	0xbf295de5	-0.66158897
30	0xbc70d140	-0.014698327
31	0xbde2b08f	-0.11068832
32	0xbf3fdc1d	-0.7494524
33	0xbd664faa	-0.056228317
34	0xbd523574	-0.051320508
35	0x3e9e159e	0.30875868
36	0xbdd1d133	-0.1024498
37	0xbe4dd61e	-0.2010121
38	0xbdcb2e7b	-0.09920975
39	0xbe0b1b5f	-0.1358466
40	0x3e07bd53	0.13255815
41	0xbd04f929	-0.03246418
42	0xbdbbdeea	-0.09173377
43	0xbd6a609b	-0.057221036
44	0xbdc6a9ec	-0.09700379
45	0xbf387eac	-0.72068286
46	0xbd026ace	-0.031840138
47	0xbe72668e	-0.23671934
48	0xbd6d6893	-0.057961058
49	0xbd03e063	-0.032196414
50	0xbd2eca11	-0.042673174
51	0xbd05738e	-0.032580905
52	0xbd80644f	-0.06269132
53	0xbd88282c	-0.06648287
54	0xbec8b860	-0.39203167
55	0xbda3266b	-0.07966312
56	0xbdf3d398	-0.11905593
57	0xbe0ee291	-0.13953616
58	0xbea1cbf3	-0.31600913
59	0xbf848c21	-1.0355264
60	0xbdb0fae6	-0.08641605
61	0xbdb5eaf8	-0.08882707
62	0xbeb05f49	-0.34447697
63	0xbf1fe0a1	-0.6245213
64	0xbd0cf0d3	-0.034409355
65	0xbe68dfb5	-0.22741587
66	0xbe199946	-0.14999875
67	0xbd269517	-0.040669527
68	0xbdc5c265	-0.096562184
69	0xbda1ade7	-0.07894497
70	0xbcfc2ae6	-0.030782174
71	0xbea15fd2	-0.31518418
72	0xbdcae0c2	-0.099061504
73	0xbd8087d5	-0.06275908
74	0xbdb84cfe	-0.0899906
75	0xbece333f	-0.40273473
76	0xbeea7c42	-0.45797926
77	0xbe309bdc	-0.17246956
78	0xbd87632d	-0.06610713
79	0xbe43ee48	-0.19133866
80	0xbf06c975	-0.5265115
81	0x3ecd5ae4	0.40108407
82	0xbf10ddd7	-0.565885
83	0xbe2d402c	-0.16919011
84	0x3e28d787	0.16488467
85	0xbf19183e	-0.59802616
86	0xbdf5a8a6	-0.11995058
87	0xbd097ed9	-0.033568237
88	0xbe3827bc	-0.17983907
89	0xbea43c3f	-0.32077214
90	0xbf057787	-0.5213551
91	0x3e356377	0.17713724
92	0x3d64385c	0.05571781
93	0xbde17596	-0.11008756
94	0xbcc75df7	-0.024336798
95	0xbdfae0f5	-0.122499384
96	0xbe26201a	-0.16223183
97	0xbc817eb4	-0.015807487
98	0xbe22bd33	-0.15892486
99	0xbe3edaa6	-0.18638095
100	0xbf2ccf9a	-0.67504275
101	0xbe52a15a	-0.20569363
102	0xbcea5578	-0.028605208
103	0xbdb8e800	-0.090286255
104	0xbda81e7d	-0.0820894
105	0xbe3860c5	-0.18005665
106	0xbe6b22ac	-0.22962445
107	0xbdf05b97	-0.117362194
108	0xbe1fd630	-0.1560905
109	0xbd526a7e	-0.05137109
110	0x3e73aba3	0.23795943
111	0x3e0c8212	0.13721493
112	0xbebc48c3	-0.36774263
113	0xbe3f2b94	-0.18668967
114	0xbe6a97eb	-0.22909515
115	0xbeb4103a	-0.3516863
116	0xbe0887d1	-0.1333306
117	0xbf059bac	-0.5219066
118	0xbda31491	-0.07962907
119	0xbe11695b	-0.14200346
120	0xbab55a19	-0.0013836055
121	0xbe0881ba	-0.13330737
122	0xbe3151f2	-0.17316416
123	0xbd0cb9c1	-0.034356836
124	0xbd444b20	-0.047923207
125	0xbebb3e4c	-0.36570966
126	0xbd38e7f9	-0.0451431
127	0xbdb20579	-0.0869245

model.gnn_layers.2.weight f4 [128, 128]
0	0x3df070f1	0.11740292
1	0xbdf4aa45	-0.11946539
2	0xbcc6dd3d	-0.024275417
3	0xbdc2f555	-0.095194496
4	0x3dca2d2a	0.098718956
5	0x3e1eab7f	0.15495108
6	0x3d5a6e86	0.05332806
7	0x3e1bfeda	0.15233937
8	0x3e0a7b58	0.13523614
9	0xbd2a2378	-0.041537732
10	0xbe18b4f2	-0.14912775
11	0xbdc97d25	-0.098383226
12	0xbda54c1b	-0.080711566
13	0xbda9cc85	-0.08290962
14	0xbd08f481	-0.033436302
15	0x3dd4552f	0.1036781
16	0x3e091117	0.13385426
17	0xbd2c2499	-0.04202709
18	0xbb472ae6	-0.003039056
19	0xbc33e1b8	-0.0109791085
20	0xbca999c8	-0.020703211
21	0xbe0fe502	-0.14052203
22	0x3e1542c8	0.14576256
23	0xbd8c4eeb	-0.0685099
24	0x3d968ca8	0.07351047
25	0xbd0fdc14	-0.035121992
26	0xbe31ab1a	-0.17350426
27	0xbdcf9563	-0.10135915
28	0xbd18b642	-0.03728319
29	0xbc25ba15	-0.010115166
30	0x3e12dcff	0.14342116
31	0x3ad60ffd	0.0016331669
32	0xbe01e17c	-0.12683672
33	0xbd39079a	-0.045173265
34	0xbde6c8df	-0.11268782
35	0xbdbd5229	-0.092441864
36	0x3df71013	0.12063613
37	0xbdf3786a	-0.118882015
38	0xbdd1e6f0	-0.10249126
39	0x3d53dec9	0.051726136
40	0xbcef46a9	-0.029208498
41	0x3dd84509	0.105600424
42	0xbd299ba8	-0.04140821
43	0x3ded5ed9	0.115903564
44	0x3c009615	0.007848282
45	0x3d354d91	0.044263426
46	0x3de525af	0.11188828
47	0xbe123ff3	-0.14282207
48	0x3dda59ef	0.10661685
49	0xbdbbe625	-0.09174756
50	0xbd227f66	-0.039672278
51	0xbda876a5	-0.08225755
52	0xbdab22e0	-0.08356261
53	0x3e0a5b85	0.13511474
54	0xbd54a17b	-0.051911812
55	0xbd125ffd	-0.035736073
56	0xbda58a56	-0.08083026
57	0xbdb543f5	-0.088508524
58	0xbc092ba8	-0.008372225
59	0xbe0c4687	-0.13698779
60	0x3df1ca3c	0.11806151
61	0x3d253faa	0.040343918
62	0x3db2afa8	0.0872491
63	0xbdae58eb	-0.085130535
64	0x3d74802d	0.05969255
65	0x3d0784b8	0.033085555
66	0xbe128257	-0.14307533
67	0x3d11f157	0.03563055
68	0x3dbb64c0	0.09150076
69	0x3df08ca2	0.117455736
70	0x3e12334d	0.14277382
71	0x3e09e72d	0.13467093
72	0xbe10defe	-0.14147565
73	0x3dc26490	0.09491837
74	0xbe1a2fbb	-0.1505727
75	0xbda26ad4	-0.07930532
76	0x3e109039	0.14117517
77	0x3c70644b	0.014672349
78	0x3d5e92b1	0.054339115
79	0xbcc25150	-0.023720413
80	0xbdb1e464	-0.0868614
81	0x3c97496b	0.018467626
82	0xbca7eece	-0.020499613
83	0x3d1eeede	0.03880202
84	0xbc9d1ce4	-0.019178815
85	0xbbd6b666	-0.0065525053
86	0xbc951ca8	-0.01820214
87	0x3dde6451	0.108589776
88	0x3dc34f5c	0.09536621
89	0xbd020e80	-0.03175211
90	0xbd7d76bd	-0.061880816
91	0xbe15a08a	-0.14612022
92	0x3d50e07a	0.050995328
93	0xbd30e129	-0.04318348
94	0x3cfc0854	0.03076569
95	0x3ddf3244	0.10898259
96	0xbde03d67	-0.109492116
97	0xbdf4aaa8	-0.119466126
98	0xbe099ef7	-0.13439547
99	0xbe05ae5a	-0.13054791
100	0x3d5bd187	0.053666618
101	0x3de5a426	0.112129495
102	0x3cc1e5f4	0.02366922
103	0x3da99bc6	0.082816646
104	0xbd9f77bc	-0.077865094
105	0x3e073682	0.13204387
106	0xbe17d337	-0.14826666
107	0xbd3dd480	-0.046345234
108	0xbdf1a0c4	-0.11798242
109	0x3d154854	0.03644593
110	0x3cc72bf8	0.024312958
111	0xbd73f8b1	-0.059563342
112	0xbdb8e55c	-0.09028122
113	0xbd5eb811	-0.05437476
114	0x3e0c1631	0.1368034
115	0xbdf7e2a5	-0.12103776
116	0xbd72f865	-0.05931892
117	0xbd9b92ea	-0.07596381
118	0xbda2ff85	-0.07958893
119	0xbda583e1	-0.080817945
120	0x3df3a871	0.11897362
121	0xbe125b44	-0.14292628
122	0x3c3d7fd7	0.011566124
123	0xbb9a5336	-0.0047096265
124	0xbc1d9ba6	-0.009619629
125	0x3d8779dc	0.0661504
126	0xbdf3bfec	-0.119018406
127	0xbdf64d80	-0.12026501
128	0xbff248fc	-1.8928523
129	0xbf5c4181	-0.8603745
130	0x3dd477aa	0.103743866
131	0xbe2d2306	-0.16907892
132	0xbedb031c	-0.4277581
133	0x3c6897ea	0.014196375
134	0x3d0d73a9	0.03453413
135	0xbda463df	-0.080268614
136	0xbf7201ea	-0.9453417
137	0xbd68a87e	-0.05680131
138	0x3d888a03	0.06666949
139	0x3c0ad8e4	0.008474562
140	0xbe074c4d	-0.132127
141	0xbd0befa3	-0.034164082
142	0xbf9a2924	-1.2043805
143	0x3d70bd80	0.05877447
144	0xbe05206c	-0.13000649
145	0xbe4a26e3	-0.19741397
146	0xbec55b6d	-0.38546315
147	0xbe017505	-0.12642296
148	0xbf31a51b	-0.69392556
149	0xbd971023	-0.07376125
150	0xbe3d1d7d	-0.1846828
151	0xbf135b14	-0.5756085
152	0xbd8fe33b	-0.07025763
153	0xbcb6aa7d	-0.022298092
154	0xbf1b0f89	-0.6057058
155	0x3d45ece2	0.048321612
156	0xbe28c561	-0.16481544
157	0xbecc5cf4	-0.39914668
158	0xbe1824e6	-0.14857826
159	0xbf8729ff	-1.0559691
160	0x3ced6755	0.028979937
161	0xbe63772a	-0.22213426
162	0xbecdd9b5	-0.4020516
163	0xbd9d5716	-0.07682626
164	0xbd10ca2a	-0.03534905
165	0xbe3827d4	-0.17983943
166	0xbf1b5bf9	-0.60687214
167	0xbe2cc321	-0.16871311
168	0xbe297107	-0.16547023
169	0xbd430fc2	-0.04762245
170	0xbf3e9187	-0.7444081
171	0xbf06cdc8	-0.5265775
172	0xbd8c10b8	-0.06839126
173	0x3d8d3381	0.06894589
174	0xbe108056	-0.14111456
175	0xbd56e86b	-0.052467745
176	0xbc2578f5	-0.010099639
177	0xbd1ae160	-0.03781259
178	0xbd63b3fd	-0.055591572
179	0x3d4bf98b	0.04979853
180	0x3dc0afc4	0.09408525
181	0xbee7e6bf	-0.45293233
182	0xbe1963c9	-0.14979471
183	0xbe052b10	-0.13004708
184	0xbebc6b94	-0.36800826
185	0x3b8e2790	0.0043382123
186	0xbdb11ad7	-0.086476974
187	0xbfd4593b	-1.6589731
188	0xbf348784	-0.7051928
189	0xbf3761c2	-0.7163354
190	0xbf6db897	-0.92859787
191	0xbddd7770	-0.108137965
192	0xbce71015	-0.02820591
193	0xbeae8249	-0.34083775
194	0xbe50aee3	-0.20379214
195	0xbf281da7	-0.65670246
196	0x3d4d2978	0.050088376
197	0xbf3ad79f	-0.7298526
198	0x3db182af	0.08667504
199	0xbd5e9b93	-0.054347586
200	0xbdb07fca	-0.08618124
201	0xbe23291d	-0.15933652
202	0xbe0d7e50	-0.13817716
203	0xbe9e7e05	-0.3095552
204	0xbe88986e	-0.26678795
205	0xbe1b76cf	-0.1518204
206	0xbe1d7029	-0.15374817
207	0xbd42e30b	-0.047579806
208	0xbcdcc502	-0.02694941
209	0xbedd818d	-0.43262902
210	0xbd33e5a8	-0.04392019
211	0x3caad5af	0.020853845
212	0xbd06634e	-0.032809548
213	0xbf417c9f	-0.7558078
214	0xbf21cfab	-0.632075
215	0x3e0ff3e8	0.14057887
216	0xbdf22a56	-0.11824481
217	0xbe6b04f6	-0.22951111
218	0xbe11de8b	-0.1424505
219	0xbd2be1d4	-0.041963413
220	0xbea80d5c	-0.32822692
221	0xbecc6b71	-0.3992572
222	0xbcf6abee	-0.03011128
223	0xbdbff8ec	-0.0937365
224	0xbf58b925	-0.8465751
225	0x3cac4b72	0.021032069
226	0xbbc79b1b	-0.006091488
227	0xbe0e664f	-0.13906215
228	0xbe301633	-0.17195968
229	0x3b9ae2eb	0.0047267578
230	0xbed1160f	-0.40837142
231	0xbe8b409f	-0.2719774
232	0xbf035738	-0.5130496
233	0xbda49923	-0.08037021
234	0xbe445adc	-0.19175285
235	0x3d8f6932	0.07002486
236	0xbe2047fe	-0.15652463
237	0xbecfdf02	-0.4059983
238	0xbebe0895	-0.37115923
239	0xbe378fd8	-0.17925966
240	0xbe8d08ca	-0.27545768
241	0xbe1f6649	-0.15566362
242	0xbec5e3dd	-0.38650408
243	0xbe2456a0	-0.1604867
244	0xbe382d63	-0.17986064
245	0xbf5a1e01	-0.8520203
246	0xbd86bbd0	-0.06578791
247	0xbe942497	-0.28934166
248	0xbc109c6f	-0.008826359
249	0xbf583bee	-0.84466445
250	0xbd5311ca	-0.051530637
251	0xbe406c28	-0.18791258
252	0x3c828033	0.01593027
253	0xbea9ff63	-0.33202657
254	0x3db2683e	0.08711289
255	0xbe0ff84b	-0.1405956

model.gnn_layers.2.bias f4 [128]
0	0xbe93ac8f	-0.2884259
1	0xbde2082f	-0.11036717
2	0xbd377128	-0.04478565
3	0xbc8c28ee	-0.01710936
4	0xbf02728d	-0.5095604
5	0xbdf4c169	-0.119509526
6	0xbd7c553d	-0.061604727
7	0xbd9fc85b	-0.07801887
8	0xbe1577f1	-0.14596535
9	0xbda1d092	-0.0790111
10	0xbdb35a0d	-0.0875741
11	0xbdc59dfc	-0.09649274
12	0xbed65521	-0.41861823
13	0xbe2b020a	-0.16699997
14	0xbe358fe4	-0.17730671
15	0xbde74c90	-0.112939
16	0xbd812a25	-0.063068666
17	0xbdae664f	-0.085156076
18	0x3d8e3b0f	0.06944858
19	0xbe380c5c	-0.17973465
20	0x3f52b660	0.8230953
21	0xbd8099a9	-0.06279308
22	0xbd753c15	-0.05987175
23	0xbdb3d993	-0.08781733
24	0xbd257b73	-0.040400933
25	0xbd247d1e	-0.040158384
26	0x3f3901a2	0.72268116
27	0xbd68ec8d	-0.056866217
28	0xbdfc9cb8	-0.12334579
29	0xbec1809e	-0.3779344
30	0xbcf5fc35	-0.030027488
31	0x3ea89e61	0.32933334
32	0xbd9f842e	-0.07788883
33	0xbd77e881	-0.060524467
34	0x3eb955a0	0.3619814
35	0xbcc799ef	-0.024365393
36	0xbcdb48d9	-0.026768135
37	0xbd928100	-0.07153511
38	0xbec83c17	-0.39108345
39	0xbe1c1f3d	-0.15246291
40	0xbe580b69	-0.21098103
41	0xbcf5fac8	-0.030026808
42	0xbe94ce11	-0.29063466
43	0x3f07de33	0.53073424
44	0xbe7229c4	-0.23648745
45	0xbdb40407	-0.08789831
46	0xbd69242c	-0.05691926
47	0xbcf5fc38	-0.030027494
48	0xbc418246	-0.011810845
49	0xbd1c6550	-0.038182557
50	0xbe6a7530	-0.22896266
51	0xbd3474c1	-0.044056658
52	0xbda8e9a3	-0.08247688
53	0x3f5bdb7c	0.8588178
54	0xbd588873	-0.052864503
55	0xbd835a8a	-0.06413753
56	0xbd4948c7	-0.04914167
57	0xbd34861c	-0.04407321
58	0xbdc2fb63	-0.095206045
59	0x3fa5ed03	1.2962955
60	0x3f328f33	0.69749755
61	0x3e0c50bc	0.13702673
62	0x3f8c63a8	1.0967913
63	0xbd9ca599	-0.07648773
64	0xbe3ff75d	-0.18746705
65	0xbea09b24	-0.31368363
66	0xbe0a0b86	-0.13480958
67	0x3f4312f8	0.7620082
68	0xbd1668f0	-0.03672117
69	0x3f2f0291	0.6836329
70	0xbdcf8961	-0.10133625
71	0xbd08e1be	-0.03341841
72	0xbe5c680a	-0.21524063
73	0xbdbb0301	-0.09131432
74	0xbd1a0baf	-0.0376088
75	0xbd913c08	-0.07091528
76	0x3f1f0750	0.62120533
77	0xbd3adb47	-0.045619275
78	0xbd5b957f	-0.053609367
79	0xbcf83864	-0.030300327
80	0xbd55a70e	-0.05216127
81	0xbd051a0f	-0.032495555
82	0xbd72e35c	-0.059298858
83	0xbd8dbe97	-0.06921118
84	0xbdfebdb7	-0.12438529
85	0xbdc37ced	-0.09545312
86	0xbc42bf27	-0.011886395
87	0x3e5f381f	0.21798752
88	0xbd13ceab	-0.036085766
89	0xbd999154	-0.07498422
90	0xbd25f36e	-0.040515356
91	0xbd02b6ef	-0.03191274
92	0xbea457c5	-0.32098213
93	0x3f4c16dc	0.7972238
94	0xbe0d6e97	-0.13811718
95	0xbe00be57	-0.12572609
96	0x3f64d2bf	0.89384073
97	0xbe18f66d	-0.14937754
98	0xbd707c30	-0.058712184
99	0xbd78d7bd	-0.06075262
100	0xbd57f173	-0.0527205
101	0xbd63572d	-0.05550306
102	0xbe901e66	-0.28148192
103	0xbe590e4f	-0.21196865
104	0x3f45a1e1	0.7720013
105	0xbe353c07	-0.1769868
106	0xbda66dff	-0.08126449
107	0xbd125a8b	-0.03573088
108	0xbcb34913	-0.02188543
109	0xbece4b73	-0.40291938
110	0x3f68c1ee	0.90920913
111	0xbe61398e	-0.21994612
112	0xbd87c770	-0.066298366
113	0xbd41bef5	-0.04730125
114	0xbe65661f	-0.22402237
115	0xbe342bc3	-0.17594819
116	0xbdbd362f	-0.0923885
117	0x3f4a20df	0.7895641
118	0xbde01511	-0.10941518
119	0x3f0c3434	0.54767156
120	0xbe3072df	-0.1723132
121	0x3eafe9f8	0.34358191
122	0xbe56b1c5	-0.20966251
123	0xbd8e7abe	-0.06957005
124	0xbcc7166a	-0.02430268
125	0xbdb5fe70	-0.08886421
126	0xbd236261	-0.039888743
127	0xbe8e0436	-0.27737588

model.mlps.0.weight f4 [2, 128]
0	0xbe76dfb9	-0.24108781
1	0xbd0d7bf2	-0.03454203
2	0x3bc67d2f	0.0060574035
3	0x3d04420f	0.03228956
4	0x3ea2930d	0.31752816
5	0x3e22ad6f	0.15886472
6	0x3ce076a6	0.027400326
7	0x3d3e4655	0.046453793
8	0xbdc67784	-0.096907645
9	0xbd80ab83	-0.06282713
10	0xbe12edec	-0.14348572
11	0x3d38fbc7	0.04516199
12	0xbd984b7e	-0.07436274
13	0x3dc86979	0.09785742
14	0xbc9cae8d	-0.019126201
15	0xbe2b1bc8	-0.16709816
16	0x3cc51f7b	0.024062863
17	0xbd896153	-0.06708016
18	0x3dc7a132	0.097475424
19	0xbd69aae1	-0.05704773
20	0x3e9ceffc	0.30651844
21	0x3cd9df2d	0.026595676
22	0xbd400ddf	-0.04688823
23	0xbdae468e	-0.08509551
24	0x3c6800e2	0.014160367
25	0x3d22a31e	0.039706342
26	0x3e276a51	0.1634915
27	0xbdcfdca5	-0.101495065
28	0xbd2bd550	-0.041951478
29	0xbc01fb37	-0.007933429
30	0xbb143926	-0.002261707
31	0xbf023847	-0.5086712
32	0xbc526842	-0.01284224
33	0xbd33fe0a	-0.043943442
34	0xc0706b47	-3.7565477
35	0xbd0d935b	-0.034564357
36	0x3d62ae10	0.05534178
37	0xbe2963b4	-0.1654194
38	0xbe41ecdd	-0.18938012
39	0xbd3ee348	-0.04660347
40	0xbb17012e	-0.0023041475
41	0x3ca209b0	0.01978001
42	0xbbe0b622	-0.0068576494
43	0x3d97dfea	0.07415755
44	0xbd22b7fb	-0.03972624
45	0xbce9046b	-0.02844449
46	0xbd6ee48b	-0.058323424
47	0x3d60b4f4	0.05486007
48	0xbac7e02f	-0.0015249307
49	0x3c4da042	0.0125504155
50	0xbe233d37	-0.1594132
51	0x3d3cf1ab	0.04612891
52	0xbd421625	-0.0473844
53	0x3eff555f	0.4986982
54	0x3ca1bae0	0.01974243
55	0xbda45d9f	-0.08025669
56	0x3d66f567	0.056386378
57	0x3d46dd54	0.04855092
58	0x3dd3add0	0.103358865
59	0xbfa89f1e	-1.3173559
60	0x3e867164	0.26258385
61	0xbf541f51	-0.82860285
62	0xbf1ea1a8	-0.6196542
63	0xbc6b7afb	-0.014372583
64	0xbe33df64	-0.17565686
65	0x3f20706e	0.62671554
66	0xbcc16a8d	-0.023610378
67	0xc02e3a9c	-2.7223272
68	0xbcc315c6	-0.023814093
69	0x3df2c518	0.11853999
70	0xbce4b9db	-0.027920654
71	0x3ae65d92	0.0017575494
72	0xbdf695d3	-0.120402955
73	0xbd984604	-0.074352294
74	0x3bed22bc	0.0072368067
75	0x3d1f40a0	0.03887999
76	0xbec7cacd	-0.39021912
77	0x3d56a6e8	0.052405268
78	0x3cbed052	0.023292694
79	0xbd427bf4	-0.047481492
80	0xbe117645	-0.14205272
81	0xbc945e41	-0.01811135
82	0xbbf57b31	-0.007491492
83	0xbdc80836	-0.09767191
84	0x3e50146e	0.20320293
85	0xbd44b97f	-0.048028465
86	0x3c6f2889	0.014597067
87	0xbf6ed159	-0.9328819
88	0x3d139d34	0.036038592
89	0xbd86d036	-0.06582682
90	0x3d09b557	0.033620205
91	0xbc46c77e	-0.012132524
92	0xbb118951	-0.002220709
93	0x3e65a552	0.22426346
94	0x3e48ff71	0.19628693
95	0xbd2b182d	-0.041771103
96	0x3fc10dd2	1.5082343
97	0x3d597048	0.053085595
98	0x3be0efd5	0.0068645277
99	0x3c8dd33b	0.017312637
100	0x3b032f96	0.0020017377
101	0xba4afad7	-0.00077430665
102	0xbca42b51	-0.020040186
103	0x3df99981	0.12187482
104	0x3e17cdc4	0.14824587
105	0xbc473957	-0.012159667
106	0x3cf564c1	0.02995527
107	0x3d13a7ce	0.036048703
108	0xbbde940b	-0.0067925504
109	0xbdfa20fd	-0.12213323
110	0x3ee89e07	0.45433065
111	0x3d183ff4	0.037170365
112	0xbd48c3a3	-0.0490147
113	0xbd51c807	-0.05121615
114	0xbe97aa6c	-0.2962221
115	0x3dc55254	0.096348435
116	0x3d58ee93	0.052961897
117	0x404938fe	3.1441035
118	0xbd7e7e61	-0.062132243
119	0xbed7b527	-0.42130396
120	0xbd5974da	-0.053089954
121	0x3fa3e5cd	1.2804505
122	0xbd205064	-0.039139166
123	0xbbe0545c	-0.006845994
124	0xbd633587	-0.05547097
125	0xbd6c3558	-0.05766806
126	0xbd21d5fe	-0.03951072
127	0x3e5c758d	0.21529217
128	0x3e7fef22	0.24993566
129	0xbbf4a36f	-0.007465772
130	0x3c6aa429	0.014321365
131	0xbc2875e9	-0.010282018
132	0xbe42ac53	-0.19011049
133	0xbe934eb2	-0.28770977
134	0xbcac16f1	-0.021007033
135	0x3d41c69f	0.04730856
136	0x3e268182	0.16260341
137	0xbdc74661	-0.097302206
138	0x3d51ab56	0.05118879
139	0x3d9e5184	0.077303916
140	0x3ce1e345	0.02757419
141	0x3d012a2f	0.03153437
142	0x3bd1775a	0.0063924016
143	0x3e07454d	0.1321003
144	0x3d0175cb	0.031606477
145	0x3d772174	0.060334638
146	0x3d9a1ef8	0.07525438
147	0xbd180ba6	-0.037120484
148	0xbee33db9	-0.44383028
149	0x3db12a07	0.08650594
150	0xbd33f05e	-0.043930404
151	0x3c35e14b	0.011101077
152	0xbd164cbf	-0.036694285
153	0x3daaa514	0.083322674
154	0xbe2a0013	-0.16601591
155	0x3d149363	0.03627337
156	0x3d832b18	0.06404704
157	0x3aeab0aa	0.0017905433
158	0xbd697de2	-0.057004817
159	0x3f02ecf2	0.511428
160	0xbd53efa9	-0.05174223
161	0xbd817448	-0.06321007
162	0x406d2da9	3.7059119
163	0xbd090911	-0.033455912
164	0x3d3f748c	0.046742007
165	0x3c6bb1d8	0.014385663
166	0x3e1f348d	0.1554739
167	0x3dec5576	0.11539738
168	0x3c0500e5	0.008117889
169	0x3d2c17a6	0.04201474
170	0x3c3a0f77	0.011356226
171	0xbda0204d	-0.07818661
172	0xbd05e51f	-0.03268921
173	0xbd819ac7	-0.063283496
174	0xbd85f562	-0.06540944
175	0xbd4e5bb7	-0.050380435
176	0xbd8300b9	-0.06396622
177	0xbbdaa5eb	-0.006672611
178	0x3e10f9a5	0.14157732
179	0x3d91e12c	0.07123026
180	0xbb637c90	-0.0034711696
181	0xbf095e21	-0.53659254
182	0x3b1a6410	0.0023558177
183	0xbc9854de	-0.018595155
184	0x3d6b99a1	0.05751956
185	0x3d53cbf5	0.05170818
186	0xbdf570b3	-0.11984386
187	0x3fb649be	1.4241254
188	0xbe530790	-0.20608354
189	0x3f45cf36	0.77269304
190	0x3f373316	0.71562326
191	0x3cdccd5e	0.026953395
192	0x3db8b765	0.09019355
193	0xbef39967	-0.47577974
194	0xbc6ae7fe	-0.014337538
195	0x402d3490	2.7063332
196	0xbd5c30a9	-0.053757343
197	0xbdd24895	-0.1026775
198	0xbcc4ddb4	-0.024031498
199	0xbceffb34	-0.029294588
200	0x3dad56af	0.08463799
201	0xbcf924d1	-0.030413063
202	0x3c95e3d2	0.01829711
203	0xbdf8da78	-0.121510446
204	0x3f06865e	0.5254878
205	0x3d6c8ead	0.057753254
206	0x3ca48010	0.020080596
207	0xbd6eff52	-0.05834896
208	0x3dba2121	0.0908835
209	0xbceea5d9	-0.029131817
210	0x3a3717ba	0.00069844315
211	0xbd59901b	-0.053115945
212	0xbd1d3841	-0.038383726
213	0xbc202e36	-0.009776643
214	0x3af8ff50	0.0018996987
215	0x3f6f3275	0.93436366
216	0x3c9c6fd6	0.019096296
217	0xbd67e474	-0.056614354
218	0xbd685a85	-0.05672695
219	0xbd419b2e	-0.04726713
220	0x3da7cbec	0.08193192
221	0xbebcabc1	-0.36849788
222	0xbe02ad3d	-0.12761398
223	0xbdd1cc79	-0.10244078
224	0xbfb93794	-1.4470086
225	0xbd462d6a	-0.048383154
226	0x3d49d99f	0.049279805
227	0xbb75a5a1	-0.0037482756
228	0xbc1d74a8	-0.009610333
229	0x3dcba333	0.09943237
230	0xbd30af9d	-0.043136228
231	0xbd19b99f	-0.037530538
232	0xbe5641c4	-0.20923525
233	0xbd8b938d	-0.068152525
234	0x3bf7d3b2	0.007563078
235	0x3d05e74f	0.032691296
236	0xbc92750d	-0.01787808
237	0x3e24b55e	0.16084811
238	0xbef52dba	-0.4788645
239	0x3de157b3	0.110030554
240	0xbd84fbfb	-0.06493374
241	0xbd9e724e	-0.07736646
242	0x3e9bc866	0.3042633
243	0xbd343826	-0.04399886
244	0xbcc9e89f	-0.024647055
245	0xc049b80a	-3.1518579
246	0xbd020602	-0.03174401
247	0x3f004c85	0.5011676
248	0xbc553471	-0.013012991
249	0xbfb12f67	-1.3842591
250	0x3cad7bdd	0.021177227
251	0x3b090afe	0.0020911093
252	0x3c9b7c02	0.01898003
253	0x3d46e5eb	0.04855911
254	0xbd0690c0	-0.032852888
255	0xbe2983f1	-0.16554238

model.mlps.0.bias f4 [2]
0	0x3f05aa8d	0.52213365
1	0xbf12b498	-0.57306814
